user@ubuntuvm:~/alpr-unconstrained$ bash run.sh -i samples/img_20200301_mix -o /tmp/output_img_20200301_mix -c /tmp/output_img_20200301_mix/results.csv
layer     filters    size              input                output
    0 conv     32  3 x 3 / 1   416 x 416 x   3   ->   416 x 416 x  32  0.299 BFLOPs
    1 max          2 x 2 / 2   416 x 416 x  32   ->   208 x 208 x  32
    2 conv     64  3 x 3 / 1   208 x 208 x  32   ->   208 x 208 x  64  1.595 BFLOPs
    3 max          2 x 2 / 2   208 x 208 x  64   ->   104 x 104 x  64
    4 conv    128  3 x 3 / 1   104 x 104 x  64   ->   104 x 104 x 128  1.595 BFLOPs
    5 conv     64  1 x 1 / 1   104 x 104 x 128   ->   104 x 104 x  64  0.177 BFLOPs
    6 conv    128  3 x 3 / 1   104 x 104 x  64   ->   104 x 104 x 128  1.595 BFLOPs
    7 max          2 x 2 / 2   104 x 104 x 128   ->    52 x  52 x 128
    8 conv    256  3 x 3 / 1    52 x  52 x 128   ->    52 x  52 x 256  1.595 BFLOPs
    9 conv    128  1 x 1 / 1    52 x  52 x 256   ->    52 x  52 x 128  0.177 BFLOPs
   10 conv    256  3 x 3 / 1    52 x  52 x 128   ->    52 x  52 x 256  1.595 BFLOPs
   11 max          2 x 2 / 2    52 x  52 x 256   ->    26 x  26 x 256
   12 conv    512  3 x 3 / 1    26 x  26 x 256   ->    26 x  26 x 512  1.595 BFLOPs
   13 conv    256  1 x 1 / 1    26 x  26 x 512   ->    26 x  26 x 256  0.177 BFLOPs
   14 conv    512  3 x 3 / 1    26 x  26 x 256   ->    26 x  26 x 512  1.595 BFLOPs
   15 conv    256  1 x 1 / 1    26 x  26 x 512   ->    26 x  26 x 256  0.177 BFLOPs
   16 conv    512  3 x 3 / 1    26 x  26 x 256   ->    26 x  26 x 512  1.595 BFLOPs
   17 max          2 x 2 / 2    26 x  26 x 512   ->    13 x  13 x 512
   18 conv   1024  3 x 3 / 1    13 x  13 x 512   ->    13 x  13 x1024  1.595 BFLOPs
   19 conv    512  1 x 1 / 1    13 x  13 x1024   ->    13 x  13 x 512  0.177 BFLOPs
   20 conv   1024  3 x 3 / 1    13 x  13 x 512   ->    13 x  13 x1024  1.595 BFLOPs
   21 conv    512  1 x 1 / 1    13 x  13 x1024   ->    13 x  13 x 512  0.177 BFLOPs
   22 conv   1024  3 x 3 / 1    13 x  13 x 512   ->    13 x  13 x1024  1.595 BFLOPs
   23 conv   1024  3 x 3 / 1    13 x  13 x1024   ->    13 x  13 x1024  3.190 BFLOPs
   24 conv   1024  3 x 3 / 1    13 x  13 x1024   ->    13 x  13 x1024  3.190 BFLOPs
   25 route  16
   26 conv     64  1 x 1 / 1    26 x  26 x 512   ->    26 x  26 x  64  0.044 BFLOPs
   27 reorg              / 2    26 x  26 x  64   ->    13 x  13 x 256
   28 route  27 24
   29 conv   1024  3 x 3 / 1    13 x  13 x1280   ->    13 x  13 x1024  3.987 BFLOPs
   30 conv    125  1 x 1 / 1    13 x  13 x1024   ->    13 x  13 x 125  0.043 BFLOPs
   31 detection
mask_scale: Using default '1.000000'
Loading weights from data/vehicle-detector/yolo-voc.weights...Done!
Searching for vehicles using YOLO...
	Scanning samples/img_20200301_mix/20190615_010315.jpg
		0 cars found
	Scanning samples/img_20200301_mix/20191106_140004.jpg
		0 cars found
	Scanning samples/img_20200301_mix/20191106_141833_HDR.jpg
…
	 Processing /tmp/output_img_20200301_mix_tmp/web001_1car.png
		Bound dim: 448, ratio: 1.558140
	 Processing /tmp/output_img_20200301_mix_tmp/web019_1car.png
		Bound dim: 336, ratio: 1.142012
	 Processing /tmp/output_img_20200301_mix_tmp/web029_0car.png
		Bound dim: 518, ratio: 1.790036
	 Processing /tmp/output_img_20200301_mix_tmp/web004_2car.png
		Bound dim: 608, ratio: 2.343284
	 Processing /tmp/output_img_20200301_mix_tmp/web005_1car.png
		Bound dim: 388, ratio: 1.341463
	 Processing /tmp/output_img_20200301_mix_tmp/web003_2car.png
		Bound dim: 608, ratio: 3.916667
layer     filters    size              input                output
    0 conv     32  3 x 3 / 1   240 x  80 x   3   ->   240 x  80 x  32  0.033 BFLOPs
    1 max          2 x 2 / 2   240 x  80 x  32   ->   120 x  40 x  32
    2 conv     64  3 x 3 / 1   120 x  40 x  32   ->   120 x  40 x  64  0.177 BFLOPs
    3 max          2 x 2 / 2   120 x  40 x  64   ->    60 x  20 x  64
    4 conv    128  3 x 3 / 1    60 x  20 x  64   ->    60 x  20 x 128  0.177 BFLOPs
    5 conv     64  1 x 1 / 1    60 x  20 x 128   ->    60 x  20 x  64  0.020 BFLOPs
    6 conv    128  3 x 3 / 1    60 x  20 x  64   ->    60 x  20 x 128  0.177 BFLOPs
    7 max          2 x 2 / 2    60 x  20 x 128   ->    30 x  10 x 128
    8 conv    256  3 x 3 / 1    30 x  10 x 128   ->    30 x  10 x 256  0.177 BFLOPs
    9 conv    128  1 x 1 / 1    30 x  10 x 256   ->    30 x  10 x 128  0.020 BFLOPs
   10 conv    256  3 x 3 / 1    30 x  10 x 128   ->    30 x  10 x 256  0.177 BFLOPs
   11 conv    512  3 x 3 / 1    30 x  10 x 256   ->    30 x  10 x 512  0.708 BFLOPs
   12 conv    256  3 x 3 / 1    30 x  10 x 512   ->    30 x  10 x 256  0.708 BFLOPs
   13 conv    512  3 x 3 / 1    30 x  10 x 256   ->    30 x  10 x 512  0.708 BFLOPs
   14 conv     80  1 x 1 / 1    30 x  10 x 512   ->    30 x  10 x  80  0.025 BFLOPs
   15 detection
mask_scale: Using default '1.000000'
Loading weights from data/ocr/ocr-net.weights...Done!
Performing OCR...
	Scanning /tmp/output_img_20200301_mix_tmp/20191106_140004_0car_lp.png
		LP: TY3
	Scanning /tmp/output_img_20200301_mix_tmp/20191106_141833_HDR_1car_lp.png
		LP: UV8208
	Scanning /tmp/output_img_20200301_mix_tmp/20200114_221628_0car_lp.png
…
