…
[[103.97767361 141.83736866 138.0529239  100.19322885]
 [135.07828618 141.64067988 172.44227225 165.87987854]]
38.4242309061
31.0332098601
1.23816489107
! Two Lined !
	 Processing /tmp/output_img_web_20200307_tmp/web100_0car.png
		Bound dim: 534, ratio: 1.819209
(415, 301)
[[268.26904345 317.61367785 317.56871532 268.22408092]
 [166.78718581 161.89167093 177.81344425 182.70895913]]
49.5868834477
15.9218368066
3.11439465496
	 Processing /tmp/output_img_web_20200307_tmp/web052_0car.png
		Bound dim: 324, ratio: 1.118519
!! License Plate NOT Found !!
layer     filters    size              input                output
    0 conv     32  3 x 3 / 1   240 x  80 x   3   ->   240 x  80 x  32  0.033 BFLOPs
    1 max          2 x 2 / 2   240 x  80 x  32   ->   120 x  40 x  32
    2 conv     64  3 x 3 / 1   120 x  40 x  32   ->   120 x  40 x  64  0.177 BFLOPs
    3 max          2 x 2 / 2   120 x  40 x  64   ->    60 x  20 x  64
    4 conv    128  3 x 3 / 1    60 x  20 x  64   ->    60 x  20 x 128  0.177 BFLOPs
    5 conv     64  1 x 1 / 1    60 x  20 x 128   ->    60 x  20 x  64  0.020 BFLOPs
    6 conv    128  3 x 3 / 1    60 x  20 x  64   ->    60 x  20 x 128  0.177 BFLOPs
    7 max          2 x 2 / 2    60 x  20 x 128   ->    30 x  10 x 128
    8 conv    256  3 x 3 / 1    30 x  10 x 128   ->    30 x  10 x 256  0.177 BFLOPs
    9 conv    128  1 x 1 / 1    30 x  10 x 256   ->    30 x  10 x 128  0.020 BFLOPs
   10 conv    256  3 x 3 / 1    30 x  10 x 128   ->    30 x  10 x 256  0.177 BFLOPs
   11 conv    512  3 x 3 / 1    30 x  10 x 256   ->    30 x  10 x 512  0.708 BFLOPs
   12 conv    256  3 x 3 / 1    30 x  10 x 512   ->    30 x  10 x 256  0.708 BFLOPs
   13 conv    512  3 x 3 / 1    30 x  10 x 256   ->    30 x  10 x 512  0.708 BFLOPs
   14 conv     80  1 x 1 / 1    30 x  10 x 512   ->    30 x  10 x  80  0.025 BFLOPs
   15 detection
mask_scale: Using default '1.000000'
Loading weights from data/ocr/ocr-net.weights...Done!
Performing OCR...
	Scanning /tmp/output_img_web_20200307_tmp/web032_0car_lp.png
! Two Lined !
		LP: ZZZ5
	Scanning /tmp/output_img_web_20200307_tmp/web033_0car_lp.png
! Two Lined !
		LP: 3
	Scanning /tmp/output_img_web_20200307_tmp/web034_0car_lp.png
…
