user@ubuntuvm:~/alpr-unconstrained$ bash run.sh -i samples/data_20200310 -o /tmp/output_data_20200310 -c /tmp/output_data_20200310/results.csv
layer     filters    size              input                output
    0 conv     32  3 x 3 / 1   416 x 416 x   3   ->   416 x 416 x  32  0.299 BFLOPs
    1 max          2 x 2 / 2   416 x 416 x  32   ->   208 x 208 x  32
    2 conv     64  3 x 3 / 1   208 x 208 x  32   ->   208 x 208 x  64  1.595 BFLOPs
    3 max          2 x 2 / 2   208 x 208 x  64   ->   104 x 104 x  64
    4 conv    128  3 x 3 / 1   104 x 104 x  64   ->   104 x 104 x 128  1.595 BFLOPs
    5 conv     64  1 x 1 / 1   104 x 104 x 128   ->   104 x 104 x  64  0.177 BFLOPs
    6 conv    128  3 x 3 / 1   104 x 104 x  64   ->   104 x 104 x 128  1.595 BFLOPs
    7 max          2 x 2 / 2   104 x 104 x 128   ->    52 x  52 x 128
    8 conv    256  3 x 3 / 1    52 x  52 x 128   ->    52 x  52 x 256  1.595 BFLOPs
    9 conv    128  1 x 1 / 1    52 x  52 x 256   ->    52 x  52 x 128  0.177 BFLOPs
   10 conv    256  3 x 3 / 1    52 x  52 x 128   ->    52 x  52 x 256  1.595 BFLOPs
   11 max          2 x 2 / 2    52 x  52 x 256   ->    26 x  26 x 256
   12 conv    512  3 x 3 / 1    26 x  26 x 256   ->    26 x  26 x 512  1.595 BFLOPs
   13 conv    256  1 x 1 / 1    26 x  26 x 512   ->    26 x  26 x 256  0.177 BFLOPs
   14 conv    512  3 x 3 / 1    26 x  26 x 256   ->    26 x  26 x 512  1.595 BFLOPs
   15 conv    256  1 x 1 / 1    26 x  26 x 512   ->    26 x  26 x 256  0.177 BFLOPs
   16 conv    512  3 x 3 / 1    26 x  26 x 256   ->    26 x  26 x 512  1.595 BFLOPs
   17 max          2 x 2 / 2    26 x  26 x 512   ->    13 x  13 x 512
   18 conv   1024  3 x 3 / 1    13 x  13 x 512   ->    13 x  13 x1024  1.595 BFLOPs
   19 conv    512  1 x 1 / 1    13 x  13 x1024   ->    13 x  13 x 512  0.177 BFLOPs
   20 conv   1024  3 x 3 / 1    13 x  13 x 512   ->    13 x  13 x1024  1.595 BFLOPs
   21 conv    512  1 x 1 / 1    13 x  13 x1024   ->    13 x  13 x 512  0.177 BFLOPs
   22 conv   1024  3 x 3 / 1    13 x  13 x 512   ->    13 x  13 x1024  1.595 BFLOPs
   23 conv   1024  3 x 3 / 1    13 x  13 x1024   ->    13 x  13 x1024  3.190 BFLOPs
   24 conv   1024  3 x 3 / 1    13 x  13 x1024   ->    13 x  13 x1024  3.190 BFLOPs
   25 route  16
   26 conv     64  1 x 1 / 1    26 x  26 x 512   ->    26 x  26 x  64  0.044 BFLOPs
   27 reorg              / 2    26 x  26 x  64   ->    13 x  13 x 256
   28 route  27 24
   29 conv   1024  3 x 3 / 1    13 x  13 x1280   ->    13 x  13 x1024  3.987 BFLOPs
   30 conv    125  1 x 1 / 1    13 x  13 x1024   ->    13 x  13 x 125  0.043 BFLOPs
   31 detection
mask_scale: Using default '1.000000'
Loading weights from data/vehicle-detector/yolo-voc.weights...Done!
Searching for vehicles using YOLO...
	Scanning samples/data_20200310/20200310_105734.jpg
		2 cars found
	Scanning samples/data_20200310/20200310_110415.jpg
		1 cars found
	Scanning samples/data_20200310/20200310_110613.jpg
		3 cars found
…
	 Processing /tmp/output_data_20200310_tmp/20200310_182627_0car.png
		Bound dim: 410, ratio: 1.406736
(1200, 1600)
[[615.55857445 802.90144083 803.3370233  615.99415692]
 [816.83371851 812.72908603 857.72007991 861.82471239]]
187.387826685
44.9931023828
4.16481231035
	 Processing /tmp/output_data_20200310_tmp/20200310_120922_0car.png
		Bound dim: 326, ratio: 1.123047
(1200, 1600)
[[ 476.27677348  880.87122966  865.21252718  460.618071  ]
 [1027.65310792 1038.28848904 1215.81133132 1205.17595019]]
404.73421563
178.212105349
2.27108150054
layer     filters    size              input                output
    0 conv     32  3 x 3 / 1   240 x  80 x   3   ->   240 x  80 x  32  0.033 BFLOPs
    1 max          2 x 2 / 2   240 x  80 x  32   ->   120 x  40 x  32
    2 conv     64  3 x 3 / 1   120 x  40 x  32   ->   120 x  40 x  64  0.177 BFLOPs
    3 max          2 x 2 / 2   120 x  40 x  64   ->    60 x  20 x  64
    4 conv    128  3 x 3 / 1    60 x  20 x  64   ->    60 x  20 x 128  0.177 BFLOPs
    5 conv     64  1 x 1 / 1    60 x  20 x 128   ->    60 x  20 x  64  0.020 BFLOPs
    6 conv    128  3 x 3 / 1    60 x  20 x  64   ->    60 x  20 x 128  0.177 BFLOPs
    7 max          2 x 2 / 2    60 x  20 x 128   ->    30 x  10 x 128
    8 conv    256  3 x 3 / 1    30 x  10 x 128   ->    30 x  10 x 256  0.177 BFLOPs
    9 conv    128  1 x 1 / 1    30 x  10 x 256   ->    30 x  10 x 128  0.020 BFLOPs
   10 conv    256  3 x 3 / 1    30 x  10 x 128   ->    30 x  10 x 256  0.177 BFLOPs
   11 conv    512  3 x 3 / 1    30 x  10 x 256   ->    30 x  10 x 512  0.708 BFLOPs
   12 conv    256  3 x 3 / 1    30 x  10 x 512   ->    30 x  10 x 256  0.708 BFLOPs
   13 conv    512  3 x 3 / 1    30 x  10 x 256   ->    30 x  10 x 512  0.708 BFLOPs
   14 conv     80  1 x 1 / 1    30 x  10 x 512   ->    30 x  10 x  80  0.025 BFLOPs
   15 detection
mask_scale: Using default '1.000000'
Loading weights from data/ocr/ocr-net.weights...Done!
Performing OCR...
	Scanning /tmp/output_data_20200310_tmp/20200310_105734_0car_lp.png
! Two Lined !
		LP: 7
	Scanning /tmp/output_data_20200310_tmp/20200310_110613_0car_lp.png
		LP: PU7663
	Scanning /tmp/output_data_20200310_tmp/20200310_112150_0car_lp.png
…
